…
/gesture_recognition_with_augmentation/codes$ python 1.\ ModelA1_training.py 
Using Theano backend.
Using gpu device 0: GeForce GTX 960M (CNMeM is disabled, cuDNN not available)
Found 262881 images belonging to 5 classes.
Found 87625 images belonging to 5 classes
____________________________________________________________________________________________________
Layer (type)                     Output Shape          Param #     Connected to                     
====================================================================================================
zeropadding2d_1 (ZeroPadding2D)  (None, 3, 226, 226)   0           zeropadding2d_input_1[0][0]      
____________________________________________________________________________________________________
convolution2d_1 (Convolution2D)  (None, 64, 220, 220)  9472        zeropadding2d_1[0][0]            
____________________________________________________________________________________________________
zeropadding2d_2 (ZeroPadding2D)  (None, 64, 222, 222)  0           convolution2d_1[0][0]            
____________________________________________________________________________________________________
maxpooling2d_1 (MaxPooling2D)    (None, 64, 111, 111)  0           zeropadding2d_2[0][0]            
____________________________________________________________________________________________________
zeropadding2d_3 (ZeroPadding2D)  (None, 64, 113, 113)  0           maxpooling2d_1[0][0]             
____________________________________________________________________________________________________
convolution2d_2 (Convolution2D)  (None, 64, 109, 109)  102464      zeropadding2d_3[0][0]            
____________________________________________________________________________________________________
maxpooling2d_2 (MaxPooling2D)    (None, 64, 54, 54)    0           convolution2d_2[0][0]            
____________________________________________________________________________________________________
zeropadding2d_4 (ZeroPadding2D)  (None, 64, 56, 56)    0           maxpooling2d_2[0][0]             
____________________________________________________________________________________________________
convolution2d_3 (Convolution2D)  (None, 128, 52, 52)   204928      zeropadding2d_4[0][0]            
____________________________________________________________________________________________________
maxpooling2d_3 (MaxPooling2D)    (None, 128, 26, 26)   0           convolution2d_3[0][0]            
____________________________________________________________________________________________________
zeropadding2d_5 (ZeroPadding2D)  (None, 128, 28, 28)   0           maxpooling2d_3[0][0]             
____________________________________________________________________________________________________
convolution2d_4 (Convolution2D)  (None, 256, 26, 26)   295168      zeropadding2d_5[0][0]            
____________________________________________________________________________________________________
maxpooling2d_4 (MaxPooling2D)    (None, 256, 13, 13)   0           convolution2d_4[0][0]            
____________________________________________________________________________________________________
flatten_1 (Flatten)              (None, 43264)         0           maxpooling2d_4[0][0]             
____________________________________________________________________________________________________
dense_1 (Dense)                  (None, 1024)          44303360    flatten_1[0][0]                  
____________________________________________________________________________________________________
dropout_1 (Dropout)              (None, 1024)          0           dense_1[0][0]                    
____________________________________________________________________________________________________
dense_2 (Dense)                  (None, 1024)          1049600     dropout_1[0][0]                  
____________________________________________________________________________________________________
dropout_2 (Dropout)              (None, 1024)          0           dense_2[0][0]                    
____________________________________________________________________________________________________
dense_3 (Dense)                  (None, 5)             5125        dropout_2[0][0]                  
====================================================================================================
Total params: 45970117
____________________________________________________________________________________________________
Epoch 1/50
2000/2000 [==============================] - 145s - loss: 1.6095 - acc: 0.2180 - val_loss: 1.6114 - val_acc: 0.1850
Epoch 2/50
…
