…
gesture_recognition_with_augmentation/codes$ python 3.\ ModelA3_training.py 
Using Theano backend.
Using gpu device 0: GeForce GTX 960M (CNMeM is disabled, cuDNN not available)
Found 259867 images belonging to 5 classes.
Found 86562 images belonging to 5 classes.
____________________________________________________________________________________________________
Layer (type)                     Output Shape          Param #     Connected to                     
====================================================================================================
zeropadding2d_1 (ZeroPadding2D)  (None, 3, 226, 226)   0           zeropadding2d_input_1[0][0]      
____________________________________________________________________________________________________
convolution2d_1 (Convolution2D)  (None, 64, 224, 224)  1792        zeropadding2d_1[0][0]            
____________________________________________________________________________________________________
zeropadding2d_2 (ZeroPadding2D)  (None, 64, 226, 226)  0           convolution2d_1[0][0]            
____________________________________________________________________________________________________
maxpooling2d_1 (MaxPooling2D)    (None, 64, 113, 113)  0           zeropadding2d_2[0][0]            
____________________________________________________________________________________________________
zeropadding2d_3 (ZeroPadding2D)  (None, 64, 115, 115)  0           maxpooling2d_1[0][0]             
____________________________________________________________________________________________________
convolution2d_2 (Convolution2D)  (None, 64, 113, 113)  36928       zeropadding2d_3[0][0]            
____________________________________________________________________________________________________
maxpooling2d_2 (MaxPooling2D)    (None, 64, 56, 56)    0           convolution2d_2[0][0]            
____________________________________________________________________________________________________
zeropadding2d_4 (ZeroPadding2D)  (None, 64, 58, 58)    0           maxpooling2d_2[0][0]             
____________________________________________________________________________________________________
convolution2d_3 (Convolution2D)  (None, 128, 56, 56)   73856       zeropadding2d_4[0][0]            
____________________________________________________________________________________________________
maxpooling2d_3 (MaxPooling2D)    (None, 128, 28, 28)   0           convolution2d_3[0][0]            
____________________________________________________________________________________________________
zeropadding2d_5 (ZeroPadding2D)  (None, 128, 30, 30)   0           maxpooling2d_3[0][0]             
____________________________________________________________________________________________________
convolution2d_4 (Convolution2D)  (None, 256, 28, 28)   295168      zeropadding2d_5[0][0]            
____________________________________________________________________________________________________
maxpooling2d_4 (MaxPooling2D)    (None, 256, 14, 14)   0           convolution2d_4[0][0]            
____________________________________________________________________________________________________
flatten_1 (Flatten)              (None, 50176)         0           maxpooling2d_4[0][0]             
____________________________________________________________________________________________________
dense_1 (Dense)                  (None, 1024)          51381248    flatten_1[0][0]                  
____________________________________________________________________________________________________
dropout_1 (Dropout)              (None, 1024)          0           dense_1[0][0]                    
____________________________________________________________________________________________________
dense_2 (Dense)                  (None, 1024)          1049600     dropout_1[0][0]                  
____________________________________________________________________________________________________
dropout_2 (Dropout)              (None, 1024)          0           dense_2[0][0]                    
____________________________________________________________________________________________________
dense_3 (Dense)                  (None, 5)             5125        dropout_2[0][0]                  
====================================================================================================
Total params: 52843717
____________________________________________________________________________________________________
Epoch 1/50
2000/2000 [==============================] - 68s - loss: 1.6155 - acc: 0.2025 - val_loss: 1.6088 - val_acc: 0.1925
Epoch 2/50
…
