…
ure_recognition_with_augmentation/codes$ python 4.\ VGG16_Model_training.py 
Using Theano backend.
Using gpu device 0: GeForce GTX 960M (CNMeM is disabled, cuDNN not available)
Found 262881 images belonging to 5 classes.
Found 87625 images belonging to 5 classes.
____________________________________________________________________________________________________
Layer (type)                     Output Shape          Param #     Connected to                     
====================================================================================================
zeropadding2d_1 (ZeroPadding2D)  (None, 3, 226, 226)   0           zeropadding2d_input_1[0][0]      
____________________________________________________________________________________________________
convolution2d_1 (Convolution2D)  (None, 64, 224, 224)  1792        zeropadding2d_1[0][0]            
____________________________________________________________________________________________________
zeropadding2d_2 (ZeroPadding2D)  (None, 64, 226, 226)  0           convolution2d_1[0][0]            
____________________________________________________________________________________________________
convolution2d_2 (Convolution2D)  (None, 64, 224, 224)  36928       zeropadding2d_2[0][0]            
____________________________________________________________________________________________________
maxpooling2d_1 (MaxPooling2D)    (None, 64, 112, 112)  0           convolution2d_2[0][0]            
____________________________________________________________________________________________________
zeropadding2d_3 (ZeroPadding2D)  (None, 64, 114, 114)  0           maxpooling2d_1[0][0]             
____________________________________________________________________________________________________
convolution2d_3 (Convolution2D)  (None, 128, 112, 112) 73856       zeropadding2d_3[0][0]            
____________________________________________________________________________________________________
zeropadding2d_4 (ZeroPadding2D)  (None, 128, 114, 114) 0           convolution2d_3[0][0]            
____________________________________________________________________________________________________
convolution2d_4 (Convolution2D)  (None, 128, 112, 112) 147584      zeropadding2d_4[0][0]            
____________________________________________________________________________________________________
maxpooling2d_2 (MaxPooling2D)    (None, 128, 56, 56)   0           convolution2d_4[0][0]            
____________________________________________________________________________________________________
zeropadding2d_5 (ZeroPadding2D)  (None, 128, 58, 58)   0           maxpooling2d_2[0][0]             
____________________________________________________________________________________________________
convolution2d_5 (Convolution2D)  (None, 256, 56, 56)   295168      zeropadding2d_5[0][0]            
____________________________________________________________________________________________________
zeropadding2d_6 (ZeroPadding2D)  (None, 256, 58, 58)   0           convolution2d_5[0][0]            
____________________________________________________________________________________________________
convolution2d_6 (Convolution2D)  (None, 256, 56, 56)   590080      zeropadding2d_6[0][0]            
____________________________________________________________________________________________________
zeropadding2d_7 (ZeroPadding2D)  (None, 256, 58, 58)   0           convolution2d_6[0][0]            
____________________________________________________________________________________________________
convolution2d_7 (Convolution2D)  (None, 256, 56, 56)   590080      zeropadding2d_7[0][0]            
____________________________________________________________________________________________________
maxpooling2d_3 (MaxPooling2D)    (None, 256, 28, 28)   0           convolution2d_7[0][0]            
____________________________________________________________________________________________________
zeropadding2d_8 (ZeroPadding2D)  (None, 256, 30, 30)   0           maxpooling2d_3[0][0]             
____________________________________________________________________________________________________
convolution2d_8 (Convolution2D)  (None, 512, 28, 28)   1180160     zeropadding2d_8[0][0]            
____________________________________________________________________________________________________
zeropadding2d_9 (ZeroPadding2D)  (None, 512, 30, 30)   0           convolution2d_8[0][0]            
____________________________________________________________________________________________________
convolution2d_9 (Convolution2D)  (None, 512, 28, 28)   2359808     zeropadding2d_9[0][0]            
____________________________________________________________________________________________________
zeropadding2d_10 (ZeroPadding2D) (None, 512, 30, 30)   0           convolution2d_9[0][0]            
____________________________________________________________________________________________________
convolution2d_10 (Convolution2D) (None, 512, 28, 28)   2359808     zeropadding2d_10[0][0]           
____________________________________________________________________________________________________
maxpooling2d_4 (MaxPooling2D)    (None, 512, 14, 14)   0           convolution2d_10[0][0]           
____________________________________________________________________________________________________
zeropadding2d_11 (ZeroPadding2D) (None, 512, 16, 16)   0           maxpooling2d_4[0][0]             
____________________________________________________________________________________________________
convolution2d_11 (Convolution2D) (None, 512, 14, 14)   2359808     zeropadding2d_11[0][0]           
____________________________________________________________________________________________________
zeropadding2d_12 (ZeroPadding2D) (None, 512, 16, 16)   0           convolution2d_11[0][0]           
____________________________________________________________________________________________________
convolution2d_12 (Convolution2D) (None, 512, 14, 14)   2359808     zeropadding2d_12[0][0]           
____________________________________________________________________________________________________
zeropadding2d_13 (ZeroPadding2D) (None, 512, 16, 16)   0           convolution2d_12[0][0]           
____________________________________________________________________________________________________
convolution2d_13 (Convolution2D) (None, 512, 14, 14)   2359808     zeropadding2d_13[0][0]           
____________________________________________________________________________________________________
maxpooling2d_5 (MaxPooling2D)    (None, 512, 7, 7)     0           convolution2d_13[0][0]           
____________________________________________________________________________________________________
flatten_1 (Flatten)              (None, 25088)         0           maxpooling2d_5[0][0]             
____________________________________________________________________________________________________
dense_1 (Dense)                  (None, 4096)          102764544   flatten_1[0][0]                  
____________________________________________________________________________________________________
dropout_1 (Dropout)              (None, 4096)          0           dense_1[0][0]                    
____________________________________________________________________________________________________
dense_2 (Dense)                  (None, 4096)          16781312    dropout_1[0][0]                  
____________________________________________________________________________________________________
dropout_2 (Dropout)              (None, 4096)          0           dense_2[0][0]                    
____________________________________________________________________________________________________
dense_3 (Dense)                  (None, 5)             20485       dropout_2[0][0]                  
====================================================================================================
Total params: 134281029
____________________________________________________________________________________________________
Epoch 1/30
2000/2000 [==============================] - 330s - loss: 1.6096 - acc: 0.2060 - val_loss: 1.6074 - val_acc: 0.2250
Epoch 2/30
…
